…
 lrf=0.01, momentum=0.937, weight_decay=0.0005, warmup_epochs=3.0, warmup_momentum=0.8, warmup_bias_lr=0.1, box=7.5, cls=0.5, dfl=1.5, fl_gamma=0.0, label_smoothing=0.0, nbs=64, hsv_h=0.015, hsv_s=0.7, hsv_v=0.4, degrees=0.0, translate=0.1, scale=0.5, shear=0.0, perspective=0.0, flipud=0.0, fliplr=0.5, mosaic=1.0, mixup=0.0, copy_paste=0.0, cfg=None, v5loader=False, tracker=botsort.yaml, save_dir=runs\detect\train
Overriding model.yaml nc=80 with nc=1

                   from  n    params  module                                       arguments
  0                  -1  1      1392  ultralytics.nn.modules.Conv                  [3, 48, 3, 2]
  1                  -1  1     41664  ultralytics.nn.modules.Conv                  [48, 96, 3, 2]
  2                  -1  2    111360  ultralytics.nn.modules.C2f                   [96, 96, 2, True]
  3                  -1  1    166272  ultralytics.nn.modules.Conv                  [96, 192, 3, 2]
  4                  -1  4    813312  ultralytics.nn.modules.C2f                   [192, 192, 4, True]
  5                  -1  1    664320  ultralytics.nn.modules.Conv                  [192, 384, 3, 2]
  6                  -1  4   3248640  ultralytics.nn.modules.C2f                   [384, 384, 4, True]
  7                  -1  1   1991808  ultralytics.nn.modules.Conv                  [384, 576, 3, 2]
  8                  -1  2   3985920  ultralytics.nn.modules.C2f                   [576, 576, 2, True]
  9                  -1  1    831168  ultralytics.nn.modules.SPPF                  [576, 576, 5]
 10                  -1  1         0  torch.nn.modules.upsampling.Upsample         [None, 2, 'nearest']
 11             [-1, 6]  1         0  ultralytics.nn.modules.Concat                [1]
 12                  -1  2   1993728  ultralytics.nn.modules.C2f                   [960, 384, 2]
 13                  -1  1         0  torch.nn.modules.upsampling.Upsample         [None, 2, 'nearest']
 14             [-1, 4]  1         0  ultralytics.nn.modules.Concat                [1]
 15                  -1  2    517632  ultralytics.nn.modules.C2f                   [576, 192, 2]
 16                  -1  1    332160  ultralytics.nn.modules.Conv                  [192, 192, 3, 2]
 17            [-1, 12]  1         0  ultralytics.nn.modules.Concat                [1]
 18                  -1  2   1846272  ultralytics.nn.modules.C2f                   [576, 384, 2]
 19                  -1  1   1327872  ultralytics.nn.modules.Conv                  [384, 384, 3, 2]
 20             [-1, 9]  1         0  ultralytics.nn.modules.Concat                [1]
 21                  -1  2   4207104  ultralytics.nn.modules.C2f                   [960, 576, 2]
 22        [15, 18, 21]  1   3776275  ultralytics.nn.modules.Detect                [1, [192, 384, 576]]
Model summary: 295 layers, 25856899 parameters, 25856883 gradients, 79.1 GFLOPs

Transferred 469/475 items from pretrained weights
AMP: running Automatic Mixed Precision (AMP) checks with YOLOv8n...
Downloading https://github.com/ultralytics/assets/releases/download/v0.0.0/yolov8n.pt to yolov8n.pt...
100%|█████████████████████████████████████████████████████████████████████████████| 6.23M/6.23M [00:00<00:00, 6.65MB/s]
…
