…
.937, weight_decay=0.0005, warmup_epochs=3.0, warmup_momentum=0.8, warmup_bias_lr=0.1, box=7.5, cls=0.5, dfl=1.5, pose=12.0, kobj=1.0, label_smoothing=0.0, nbs=64, hsv_h=0.015, hsv_s=0.7, hsv_v=0.4, degrees=0.0, translate=0.1, scale=0.5, shear=0.0, perspective=0.0, flipud=0.0, fliplr=0.5, mosaic=1.0, mixup=0.0, copy_paste=0.0, cfg=None, v5loader=False, tracker=botsort.yaml, save_dir=runs\detect\train
WARNING  no model scale passed. Assuming scale='n'.

                   from  n    params  module                                       arguments
  0                  -1  1       464  ultralytics.nn.modules.Conv                  [3, 16, 3, 2]
  1                  -1  1      4672  ultralytics.nn.modules.Conv                  [16, 32, 3, 2]
  2                  -1  1      7360  ultralytics.nn.modules.C2f                   [32, 32, 1, True]
  3                  -1  1     18560  ultralytics.nn.modules.Conv                  [32, 64, 3, 2]
  4                  -1  2     89452  ultralytics.nn.modules.C2f_DCN               [64, 64, True]
  5                  -1  1     73984  ultralytics.nn.modules.Conv                  [64, 128, 3, 2]
  6                  -1  2    293484  ultralytics.nn.modules.C2f_DCN               [128, 128, True]
  7                  -1  1    295424  ultralytics.nn.modules.Conv                  [128, 256, 3, 2]
  8                  -1  1    522806  ultralytics.nn.modules.C2f_DCN               [256, 256, True]
  9                  -1  1    164608  ultralytics.nn.modules.SPPF                  [256, 256, 5]
 10                  -1  1         0  torch.nn.modules.upsampling.Upsample         [None, 2, 'nearest']
 11             [-1, 6]  1         0  ultralytics.nn.modules.Concat                [1]
 12                  -1  1    148224  ultralytics.nn.modules.C2f                   [384, 128, 1]
 13                  -1  1         0  torch.nn.modules.upsampling.Upsample         [None, 2, 'nearest']
 14             [-1, 4]  1         0  ultralytics.nn.modules.Concat                [1]
 15                  -1  1     37248  ultralytics.nn.modules.C2f                   [192, 64, 1]
 16                  -1  1     36992  ultralytics.nn.modules.Conv                  [64, 64, 3, 2]
 17            [-1, 12]  1         0  ultralytics.nn.modules.Concat                [1]
 18                  -1  1    123648  ultralytics.nn.modules.C2f                   [192, 128, 1]
 19                  -1  1    147712  ultralytics.nn.modules.Conv                  [128, 128, 3, 2]
 20             [-1, 9]  1         0  ultralytics.nn.modules.Concat                [1]
 21                  -1  1    493056  ultralytics.nn.modules.C2f                   [384, 256, 1]
 22        [15, 18, 21]  1    751507  ultralytics.nn.modules.Detect                [1, [64, 128, 256]]
YOLOv8-DCNv2 summary: 243 layers, 3209201 parameters, 3209185 gradients, 7.9 GFLOPs

Transferred 409/409 items from pretrained weights
TensorBoard: Start with 'tensorboard --logdir runs\detect\train', view at http://localhost:6006/
AMP: running Automatic Mixed Precision (AMP) checks with YOLOv8n...
AMP: checks passed 
optimizer: SGD(lr=0.01) with parameter groups 61 weight(decay=0.0), 78 weight(decay=0.0005), 87 bias
…
