(pytorch) C:\ultralytics>yolo task=detect mode=train model=C:\ultralytics\ultralytics\models\v8\yolov8-DCNv2.yaml data=coco128.yaml epochs=100 imgsz=640 workers=4 batch=4
WARNING  no model scale passed. Assuming scale='n'.

                   from  n    params  module                                       arguments
  0                  -1  1       464  ultralytics.nn.modules.Conv                  [3, 16, 3, 2]
  1                  -1  1      4672  ultralytics.nn.modules.Conv                  [16, 32, 3, 2]
  2                  -1  1      7360  ultralytics.nn.modules.C2f                   [32, 32, 1, True]
  3                  -1  1     18560  ultralytics.nn.modules.Conv                  [32, 64, 3, 2]
  4                  -1  2     89452  ultralytics.nn.modules.C2f_DCN               [64, 64, True]
  5                  -1  1     73984  ultralytics.nn.modules.Conv                  [64, 128, 3, 2]
  6                  -1  2    293484  ultralytics.nn.modules.C2f_DCN               [128, 128, True]
  7                  -1  1    295424  ultralytics.nn.modules.Conv                  [128, 256, 3, 2]
  8                  -1  1    522806  ultralytics.nn.modules.C2f_DCN               [256, 256, True]
  9                  -1  1    164608  ultralytics.nn.modules.SPPF                  [256, 256, 5]
 10                  -1  1         0  torch.nn.modules.upsampling.Upsample         [None, 2, 'nearest']
 11             [-1, 6]  1         0  ultralytics.nn.modules.Concat                [1]
 12                  -1  1    148224  ultralytics.nn.modules.C2f                   [384, 128, 1]
 13                  -1  1         0  torch.nn.modules.upsampling.Upsample         [None, 2, 'nearest']
 14             [-1, 4]  1         0  ultralytics.nn.modules.Concat                [1]
 15                  -1  1     37248  ultralytics.nn.modules.C2f                   [192, 64, 1]
 16                  -1  1     36992  ultralytics.nn.modules.Conv                  [64, 64, 3, 2]
 17            [-1, 12]  1         0  ultralytics.nn.modules.Concat                [1]
 18                  -1  1    123648  ultralytics.nn.modules.C2f                   [192, 128, 1]
 19                  -1  1    147712  ultralytics.nn.modules.Conv                  [128, 128, 3, 2]
 20             [-1, 9]  1         0  ultralytics.nn.modules.Concat                [1]
 21                  -1  1    493056  ultralytics.nn.modules.C2f                   [384, 256, 1]
 22        [15, 18, 21]  1    897664  ultralytics.nn.modules.Detect                [80, [64, 128, 256]]
YOLOv8-DCNv2 summary: 243 layers, 3355358 parameters, 3355342 gradients, 8.5 GFLOPs

New https://pypi.org/project/ultralytics/8.0.85 available  Update with 'pip install -U ultralytics'
Ultralytics YOLOv8.0.83  Python-3.9.15 torch-1.13.1+cu117 CUDA:0 (NVIDIA GeForce MX150, 2048MiB)
yolo\engine\trainer: task=detect, mode=train, model=C:\ultralytics\ultralytics\models\v8\yolov8-DC
…
